…
[2021-07-06 16:00:36,241][utils.ioUtils][INFO] - load data from E:\python\workplace\NLP\recipes\NamedEntityRecognition_RelationExtract\deepke\data/out\vocab.pkl
[2021-07-06 16:00:36,243][utils.ioUtils][INFO] - load data from E:\python\workplace\NLP\recipes\NamedEntityRecognition_RelationExtract\deepke\data/out\train.pkl
[2021-07-06 16:00:36,273][utils.ioUtils][INFO] - load data from E:\python\workplace\NLP\recipes\NamedEntityRecognition_RelationExtract\deepke\data/out\valid.pkl
[2021-07-06 16:00:36,371][utils.ioUtils][INFO] - load data from E:\python\workplace\NLP\recipes\NamedEntityRecognition_RelationExtract\deepke\data/out\test.pkl
[2021-07-06 16:00:41,119][__main__][INFO] - 
 PCNN(
  (embedding): Embedding(
    (wordEmbed): Embedding(4701, 60, padding_idx=0)
    (headPosEmbed): Embedding(62, 60, padding_idx=0)
    (tailPosEmbed): Embedding(62, 60, padding_idx=0)
    (layer_norm): LayerNorm((60,), eps=1e-05, elementwise_affine=True)
  )
  (cnn): CNN(
    (convs): ModuleList(
      (0): Conv1d(60, 100, kernel_size=(3,), stride=(1,), padding=(1,), bias=False)
      (1): Conv1d(60, 100, kernel_size=(5,), stride=(1,), padding=(2,), bias=False)
      (2): Conv1d(60, 100, kernel_size=(7,), stride=(1,), padding=(3,), bias=False)
    )
    (activations): ModuleDict(
      (relu): ReLU()
      (lrelu): LeakyReLU(negative_slope=0.01)
      (prelu): PReLU(num_parameters=1)
      (selu): SELU()
      (celu): CELU(alpha=1.0)
      (gelu): GELU()
      (sigmoid): Sigmoid()
      (tanh): Tanh()
    )
    (dropout): Dropout(p=0.3, inplace=False)
  )
  (fc1): Linear(in_features=300, out_features=80, bias=True)
  (fc2): Linear(in_features=80, out_features=11, bias=True)
  (dropout): Dropout(p=0.3, inplace=False)
)
[2021-07-06 16:00:41,119][__main__][INFO] - ========== Start training ==========
[2021-07-06 16:01:24,768][__main__][INFO] - 
preprocess: true
data_path: data/origin
out_path: data/out
chinese_split: true
replace_entity_with_type: true
replace_entity_with_scope: true
min_freq: 3
pos_limit: 30
seed: 1
use_gpu: true
…
